…
ionb24', stop_aug_last_n_epoch=15, teacher_model_path=None, temperature=20, use_syncbn=False, workers=8, world_size=1, write_trainbatch_tb=False)

Train: Final numbers of valid images: 6670/ labels: 6670. 
0.5s for dataset initialization.
deterministic
True
./data/duo/train
Val: Final numbers of valid images: 1111/ labels: 1111. 
0.1s for dataset initialization.
./data/duo/test
Model: Model(
  (backbone): EfficientRep_RGB_Resdul(
    (stem_r): Sequential(
      (0): RepVGGBlock(
        (nonlinearity): ReLU(inplace=True)
        (se): Identity()
        (rbr_dense): Sequential(
          (conv): Conv2d(1, 32, kernel_size=(3, 3), stride=(2, 2), padding=(1, 1), bias=False)
          (bn): BatchNorm2d(32, eps=0.001, momentum=0.03, affine=True, track_running_stats=True)
        )
        (rbr_1x1): Sequential(
          (conv): Conv2d(1, 32, kernel_size=(1, 1), stride=(2, 2), bias=False)
          (bn): BatchNorm2d(32, eps=0.001, momentum=0.03, affine=True, track_running_stats=True)
        )
      )
      (1): cifm_Rsedul(
        (conv1): RepVGGBlock(
          (nonlinearity): ReLU(inplace=True)
          (se): Identity()
          (rbr_identity): BatchNorm2d(32, eps=0.001, momentum=0.03, affine=True, track_running_stats=True)
          (rbr_dense): Sequential(
            (conv): Conv2d(32, 32, kernel_size=(3, 3), stride=(1, 1), padding=(1, 1), bias=False)
            (bn): BatchNorm2d(32, eps=0.001, momentum=0.03, affine=True, track_running_stats=True)
          )
          (rbr_1x1): Sequential(
            (conv): Conv2d(32, 32, kernel_size=(1, 1), stride=(1, 1), bias=False)
            (bn): BatchNorm2d(32, eps=0.001, momentum=0.03, affine=True, track_running_stats=True)
          )
        )
        (block): Sequential(
          (0): RepVGGBlock(
            (nonlinearity): ReLU(inplace=True)
            (se): Identity()
            (rbr_identity): BatchNorm2d(32, eps=0.001, momentum=0.03, affine=True, track_running_stats=True)
            (rbr_dense): Sequential(
              (conv): Conv2d(32, 32, kernel_size=(3, 3), stride=(1, 1), padding=(1, 1), bias=False)
              (bn): BatchNorm2d(32, eps=0.001, momentum=0.03, affine=True, track_running_stats=True)
            )
            (rbr_1x1): Sequential(
              (conv): Conv2d(32, 32, kernel_size=(1, 1), stride=(1, 1), bias=False)
              (bn): BatchNorm2d(32, eps=0.001, momentum=0.03, affine=True, track_running_stats=True)
            )
          )
          (1): RepVGGBlock(
            (nonlinearity): ReLU(inplace=True)
            (se): Identity()
            (rbr_identity): BatchNorm2d(32, eps=0.001, momentum=0.03, affine=True, track_running_stats=True)
            (rbr_dense): Sequential(
              (conv): Conv2d(32, 32, kernel_size=(3, 3), stride=(1, 1), padding=(1, 1), bias=False)
              (bn): BatchNorm2d(32, eps=0.001, momentum=0.03, affine=True, track_running_stats=True)
            )
            (rbr_1x1): Sequential(
              (conv): Conv2d(32, 32, kernel_size=(1, 1), stride=(1, 1), bias=False)
              (bn): BatchNorm2d(32, eps=0.001, momentum=0.03, affine=True, track_running_stats=True)
            )
          )
        )
      )
    )
    (stem_g): Sequential(
      (0): RepVGGBlock(
        (nonlinearity): ReLU(inplace=True)
        (se): Identity()
        (rbr_dense): Sequential(
          (conv): Conv2d(1, 32, kernel_size=(3, 3), stride=(2, 2), padding=(1, 1), bias=False)
          (bn): BatchNorm2d(32, eps=0.001, momentum=0.03, affine=True, track_running_stats=True)
        )
        (rbr_1x1): Sequential(
          (conv): Conv2d(1, 32, kernel_size=(1, 1), stride=(2, 2), bias=False)
          (bn): BatchNorm2d(32, eps=0.001, momentum=0.03, affine=True, track_running_stats=True)
        )
      )
      (1): cifm_Rsedul(
        (conv1): RepVGGBlock(
          (nonlinearity): ReLU(inplace=True)
          (se): Identity()
          (rbr_identity): BatchNorm2d(32, eps=0.001, momentum=0.03, affine=True, track_running_stats=True)
          (rbr_dense): Sequential(
            (conv): Conv2d(32, 32, kernel_size=(3, 3), stride=(1, 1), padding=(1, 1), bias=False)
            (bn): BatchNorm2d(32, eps=0.001, momentum=0.03, affine=True, track_running_stats=True)
          )
          (rbr_1x1): Sequential(
            (conv): Conv2d(32, 32, kernel_size=(1, 1), stride=(1, 1), bias=False)
            (bn): BatchNorm2d(32, eps=0.001, momentum=0.03, affine=True, track_running_stats=True)
          )
        )
        (block): Sequential(
          (0): RepVGGBlock(
            (nonlinearity): ReLU(inplace=True)
            (se): Identity()
            (rbr_identity): BatchNorm2d(32, eps=0.001, momentum=0.03, affine=True, track_running_stats=True)
            (rbr_dense): Sequential(
              (conv): Conv2d(32, 32, kernel_size=(3, 3), stride=(1, 1), padding=(1, 1), bias=False)
              (bn): BatchNorm2d(32, eps=0.001, momentum=0.03, affine=True, track_running_stats=True)
            )
            (rbr_1x1): Sequential(
              (conv): Conv2d(32, 32, kernel_size=(1, 1), stride=(1, 1), bias=False)
              (bn): BatchNorm2d(32, eps=0.001, momentum=0.03, affine=True, track_running_stats=True)
            )
          )
          (1): RepVGGBlock(
            (nonlinearity): ReLU(inplace=True)
            (se): Identity()
            (rbr_identity): BatchNorm2d(32, eps=0.001, momentum=0.03, affine=True, track_running_stats=True)
            (rbr_dense): Sequential(
              (conv): Conv2d(32, 32, kernel_size=(3, 3), stride=(1, 1), padding=(1, 1), bias=False)
              (bn): BatchNorm2d(32, eps=0.001, momentum=0.03, affine=True, track_running_stats=True)
            )
            (rbr_1x1): Sequential(
              (conv): Conv2d(32, 32, kernel_size=(1, 1), stride=(1, 1), bias=False)
              (bn): BatchNorm2d(32, eps=0.001, momentum=0.03, affine=True, track_running_stats=True)
            )
          )
        )
      )
    )
    (stem_b): Sequential(
      (0): RepVGGBlock(
        (nonlinearity): ReLU(inplace=True)
        (se): Identity()
        (rbr_dense): Sequential(
          (conv): Conv2d(1, 32, kernel_size=(3, 3), stride=(2, 2), padding=(1, 1), bias=False)
          (bn): BatchNorm2d(32, eps=0.001, momentum=0.03, affine=True, track_running_stats=True)
        )
        (rbr_1x1): Sequential(
          (conv): Conv2d(1, 32, kernel_size=(1, 1), stride=(2, 2), bias=False)
          (bn): BatchNorm2d(32, eps=0.001, momentum=0.03, affine=True, track_running_stats=True)
        )
      )
      (1): cifm_Rsedul(
        (conv1): RepVGGBlock(
          (nonlinearity): ReLU(inplace=True)
          (se): Identity()
          (rbr_identity): BatchNorm2d(32, eps=0.001, momentum=0.03, affine=True, track_running_stats=True)
          (rbr_dense): Sequential(
            (conv): Conv2d(32, 32, kernel_size=(3, 3), stride=(1, 1), padding=(1, 1), bias=False)
            (bn): BatchNorm2d(32, eps=0.001, momentum=0.03, affine=True, track_running_stats=True)
          )
          (rbr_1x1): Sequential(
            (conv): Conv2d(32, 32, kernel_size=(1, 1), stride=(1, 1), bias=False)
            (bn): BatchNorm2d(32, eps=0.001, momentum=0.03, affine=True, track_running_stats=True)
          )
        )
        (block): Sequential(
          (0): RepVGGBlock(
            (nonlinearity): ReLU(inplace=True)
            (se): Identity()
            (rbr_identity): BatchNorm2d(32, eps=0.001, momentum=0.03, affine=True, track_running_stats=True)
            (rbr_dense): Sequential(
              (conv): Conv2d(32, 32, kernel_size=(3, 3), stride=(1, 1), padding=(1, 1), bias=False)
              (bn): BatchNorm2d(32, eps=0.001, momentum=0.03, affine=True, track_running_stats=True)
            )
            (rbr_1x1): Sequential(
              (conv): Conv2d(32, 32, kernel_size=(1, 1), stride=(1, 1), bias=False)
              (bn): BatchNorm2d(32, eps=0.001, momentum=0.03, affine=True, track_running_stats=True)
            )
          )
          (1): RepVGGBlock(
            (nonlinearity): ReLU(inplace=True)
            (se): Identity()
            (rbr_identity): BatchNorm2d(32, eps=0.001, momentum=0.03, affine=True, track_running_stats=True)
            (rbr_dense): Sequential(
              (conv): Conv2d(32, 32, kernel_size=(3, 3), stride=(1, 1), padding=(1, 1), bias=False)
              (bn): BatchNorm2d(32, eps=0.001, momentum=0.03, affine=True, track_running_stats=True)
            )
            (rbr_1x1): Sequential(
              (conv): Conv2d(32, 32, kernel_size=(1, 1), stride=(1, 1), bias=False)
              (bn): BatchNorm2d(32, eps=0.001, momentum=0.03, affine=True, track_running_stats=True)
            )
          )
        )
      )
    )
    (ERBlock_2): Sequential(
      (0): RepVGGBlock(
        (nonlinearity): ReLU(inplace=True)
        (se): Identity()
        (rbr_dense): Sequential(
          (conv): Conv2d(96, 64, kernel_size=(3, 3), stride=(2, 2), padding=(1, 1), bias=False)
          (bn): BatchNorm2d(64, eps=0.001, momentum=0.03, affine=True, track_running_stats=True)
        )
        (rbr_1x1): Sequential(
          (conv): Conv2d(96, 64, kernel_size=(1, 1), stride=(2, 2), bias=False)
          (bn): BatchNorm2d(64, eps=0.001, momentum=0.03, affine=True, track_running_stats=True)
        )
      )
      (1): RepBlock(
        (conv1): RepVGGBlock(
          (nonlinearity): ReLU(inplace=True)
          (se): Identity()
          (rbr_identity): BatchNorm2d(64, eps=0.001, momentum=0.03, affine=True, track_running_stats=True)
          (rbr_dense): Sequential(
            (conv): Conv2d(64, 64, kernel_size=(3, 3), stride=(1, 1), padding=(1, 1), bias=False)
            (bn): BatchNorm2d(64, eps=0.001, momentum=0.03, affine=True, track_running_stats=True)
          )
          (rbr_1x1): Sequential(
            (conv): Conv2d(64, 64, kernel_size=(1, 1), stride=(1, 1), bias=False)
            (bn): BatchNorm2d(64, eps=0.001, momentum=0.03, affine=True, track_running_stats=True)
          )
        )
        (block): Sequential(
          (0): RepVGGBlock(
            (nonlinearity): ReLU(inplace=True)
            (se): Identity()
            (rbr_identity): BatchNorm2d(64, eps=0.001, momentum=0.03, affine=True, track_running_stats=True)
            (rbr_dense): Sequential(
              (conv): Conv2d(64, 64, kernel_size=(3, 3), stride=(1, 1), padding=(1, 1), bias=False)
              (bn): BatchNorm2d(64, eps=0.001, momentum=0.03, affine=True, track_running_stats=True)
            )
            (rbr_1x1): Sequential(
              (conv): Conv2d(64, 64, kernel_size=(1, 1), stride=(1, 1), bias=False)
              (bn): BatchNorm2d(64, eps=0.001, momentum=0.03, affine=True, track_running_stats=True)
            )
          )
        )
      )
    )
    (ERBlock_3): Sequential(
      (0): RepVGGBlock(
        (nonlinearity): ReLU(inplace=True)
        (se): Identity()
        (rbr_dense): Sequential(
          (conv): Conv2d(64, 128, kernel_size=(3, 3), stride=(2, 2), padding=(1, 1), bias=False)
          (bn): BatchNorm2d(128, eps=0.001, momentum=0.03, affine=True, track_running_stats=True)
        )
        (rbr_1x1): Sequential(
          (conv): Conv2d(64, 128, kernel_size=(1, 1), stride=(2, 2), bias=False)
          (bn): BatchNorm2d(128, eps=0.001, momentum=0.03, affine=True, track_running_stats=True)
        )
      )
      (1): RepBlock(
        (conv1): RepVGGBlock(
          (nonlinearity): ReLU(inplace=True)
          (se): Identity()
          (rbr_identity): BatchNorm2d(128, eps=0.001, momentum=0.03, affine=True, track_running_stats=True)
          (rbr_dense): Sequential(
            (conv): Conv2d(128, 128, kernel_size=(3, 3), stride=(1, 1), padding=(1, 1), bias=False)
            (bn): BatchNorm2d(128, eps=0.001, momentum=0.03, affine=True, track_running_stats=True)
          )
          (rbr_1x1): Sequential(
            (conv): Conv2d(128, 128, kernel_size=(1, 1), stride=(1, 1), bias=False)
            (bn): BatchNorm2d(128, eps=0.001, momentum=0.03, affine=True, track_running_stats=True)
          )
        )
        (block): Sequential(
          (0): RepVGGBlock(
            (nonlinearity): ReLU(inplace=True)
            (se): Identity()
            (rbr_identity): BatchNorm2d(128, eps=0.001, momentum=0.03, affine=True, track_running_stats=True)
            (rbr_dense): Sequential(
              (conv): Conv2d(128, 128, kernel_size=(3, 3), stride=(1, 1), padding=(1, 1), bias=False)
              (bn): BatchNorm2d(128, eps=0.001, momentum=0.03, affine=True, track_running_stats=True)
            )
            (rbr_1x1): Sequential(
              (conv): Conv2d(128, 128, kernel_size=(1, 1), stride=(1, 1), bias=False)
              (bn): BatchNorm2d(128, eps=0.001, momentum=0.03, affine=True, track_running_stats=True)
            )
          )
          (1): RepVGGBlock(
            (nonlinearity): ReLU(inplace=True)
            (se): Identity()
            (rbr_identity): BatchNorm2d(128, eps=0.001, momentum=0.03, affine=True, track_running_stats=True)
            (rbr_dense): Sequential(
              (conv): Conv2d(128, 128, kernel_size=(3, 3), stride=(1, 1), padding=(1, 1), bias=False)
              (bn): BatchNorm2d(128, eps=0.001, momentum=0.03, affine=True, track_running_stats=True)
            )
            (rbr_1x1): Sequential(
              (conv): Conv2d(128, 128, kernel_size=(1, 1), stride=(1, 1), bias=False)
              (bn): BatchNorm2d(128, eps=0.001, momentum=0.03, affine=True, track_running_stats=True)
            )
          )
          (2): RepVGGBlock(
            (nonlinearity): ReLU(inplace=True)
            (se): Identity()
            (rbr_identity): BatchNorm2d(128, eps=0.001, momentum=0.03, affine=True, track_running_stats=True)
            (rbr_dense): Sequential(
              (conv): Conv2d(128, 128, kernel_size=(3, 3), stride=(1, 1), padding=(1, 1), bias=False)
              (bn): BatchNorm2d(128, eps=0.001, momentum=0.03, affine=True, track_running_stats=True)
            )
            (rbr_1x1): Sequential(
              (conv): Conv2d(128, 128, kernel_size=(1, 1), stride=(1, 1), bias=False)
              (bn): BatchNorm2d(128, eps=0.001, momentum=0.03, affine=True, track_running_stats=True)
            )
          )
        )
      )
    )
    (ERBlock_4): Sequential(
      (0): RepVGGBlock(
        (nonlinearity): ReLU(inplace=True)
        (se): Identity()
        (rbr_dense): Sequential(
          (conv): Conv2d(128, 256, kernel_size=(3, 3), stride=(2, 2), padding=(1, 1), bias=False)
          (bn): BatchNorm2d(256, eps=0.001, momentum=0.03, affine=True, track_running_stats=True)
        )
        (rbr_1x1): Sequential(
          (conv): Conv2d(128, 256, kernel_size=(1, 1), stride=(2, 2), bias=False)
          (bn): BatchNorm2d(256, eps=0.001, momentum=0.03, affine=True, track_running_stats=True)
        )
      )
      (1): RepBlock(
        (conv1): RepVGGBlock(
          (nonlinearity): ReLU(inplace=True)
          (se): Identity()
          (rbr_identity): BatchNorm2d(256, eps=0.001, momentum=0.03, affine=True, track_running_stats=True)
          (rbr_dense): Sequential(
            (conv): Conv2d(256, 256, kernel_size=(3, 3), stride=(1, 1), padding=(1, 1), bias=False)
            (bn): BatchNorm2d(256, eps=0.001, momentum=0.03, affine=True, track_running_stats=True)
          )
          (rbr_1x1): Sequential(
            (conv): Conv2d(256, 256, kernel_size=(1, 1), stride=(1, 1), bias=False)
            (bn): BatchNorm2d(256, eps=0.001, momentum=0.03, affine=True, track_running_stats=True)
          )
        )
        (block): Sequential(
          (0): RepVGGBlock(
            (nonlinearity): ReLU(inplace=True)
            (se): Identity()
            (rbr_identity): BatchNorm2d(256, eps=0.001, momentum=0.03, affine=True, track_running_stats=True)
            (rbr_dense): Sequential(
              (conv): Conv2d(256, 256, kernel_size=(3, 3), stride=(1, 1), padding=(1, 1), bias=False)
              (bn): BatchNorm2d(256, eps=0.001, momentum=0.03, affine=True, track_running_stats=True)
            )
            (rbr_1x1): Sequential(
              (conv): Conv2d(256, 256, kernel_size=(1, 1), stride=(1, 1), bias=False)
              (bn): BatchNorm2d(256, eps=0.001, momentum=0.03, affine=True, track_running_stats=True)
            )
          )
          (1): RepVGGBlock(
            (nonlinearity): ReLU(inplace=True)
            (se): Identity()
            (rbr_identity): BatchNorm2d(256, eps=0.001, momentum=0.03, affine=True, track_running_stats=True)
            (rbr_dense): Sequential(
              (conv): Conv2d(256, 256, kernel_size=(3, 3), stride=(1, 1), padding=(1, 1), bias=False)
              (bn): BatchNorm2d(256, eps=0.001, momentum=0.03, affine=True, track_running_stats=True)
            )
            (rbr_1x1): Sequential(
              (conv): Conv2d(256, 256, kernel_size=(1, 1), stride=(1, 1), bias=False)
              (bn): BatchNorm2d(256, eps=0.001, momentum=0.03, affine=True, track_running_stats=True)
            )
          )
          (2): RepVGGBlock(
            (nonlinearity): ReLU(inplace=True)
            (se): Identity()
            (rbr_identity): BatchNorm2d(256, eps=0.001, momentum=0.03, affine=True, track_running_stats=True)
            (rbr_dense): Sequential(
              (conv): Conv2d(256, 256, kernel_size=(3, 3), stride=(1, 1), padding=(1, 1), bias=False)
              (bn): BatchNorm2d(256, eps=0.001, momentum=0.03, affine=True, track_running_stats=True)
            )
            (rbr_1x1): Sequential(
              (conv): Conv2d(256, 256, kernel_size=(1, 1), stride=(1, 1), bias=False)
              (bn): BatchNorm2d(256, eps=0.001, momentum=0.03, affine=True, track_running_stats=True)
            )
          )
          (3): RepVGGBlock(
            (nonlinearity): ReLU(inplace=True)
            (se): Identity()
            (rbr_identity): BatchNorm2d(256, eps=0.001, momentum=0.03, affine=True, track_running_stats=True)
            (rbr_dense): Sequential(
              (conv): Conv2d(256, 256, kernel_size=(3, 3), stride=(1, 1), padding=(1, 1), bias=False)
              (bn): BatchNorm2d(256, eps=0.001, momentum=0.03, affine=True, track_running_stats=True)
            )
            (rbr_1x1): Sequential(
              (conv): Conv2d(256, 256, kernel_size=(1, 1), stride=(1, 1), bias=False)
              (bn): BatchNorm2d(256, eps=0.001, momentum=0.03, affine=True, track_running_stats=True)
            )
          )
          (4): RepVGGBlock(
            (nonlinearity): ReLU(inplace=True)
            (se): Identity()
            (rbr_identity): BatchNorm2d(256, eps=0.001, momentum=0.03, affine=True, track_running_stats=True)
            (rbr_dense): Sequential(
              (conv): Conv2d(256, 256, kernel_size=(3, 3), stride=(1, 1), padding=(1, 1), bias=False)
              (bn): BatchNorm2d(256, eps=0.001, momentum=0.03, affine=True, track_running_stats=True)
            )
            (rbr_1x1): Sequential(
              (conv): Conv2d(256, 256, kernel_size=(1, 1), stride=(1, 1), bias=False)
              (bn): BatchNorm2d(256, eps=0.001, momentum=0.03, affine=True, track_running_stats=True)
            )
          )
        )
      )
    )
    (ERBlock_5): Sequential(
      (0): RepVGGBlock(
        (nonlinearity): ReLU(inplace=True)
        (se): Identity()
        (rbr_dense): Sequential(
          (conv): Conv2d(256, 512, kernel_size=(3, 3), stride=(2, 2), padding=(1, 1), bias=False)
          (bn): BatchNorm2d(512, eps=0.001, momentum=0.03, affine=True, track_running_stats=True)
        )
        (rbr_1x1): Sequential(
          (conv): Conv2d(256, 512, kernel_size=(1, 1), stride=(2, 2), bias=False)
          (bn): BatchNorm2d(512, eps=0.001, momentum=0.03, affine=True, track_running_stats=True)
        )
      )
      (1): RepBlock(
        (conv1): RepVGGBlock(
          (nonlinearity): ReLU(inplace=True)
          (se): Identity()
          (rbr_identity): BatchNorm2d(512, eps=0.001, momentum=0.03, affine=True, track_running_stats=True)
          (rbr_dense): Sequential(
            (conv): Conv2d(512, 512, kernel_size=(3, 3), stride=(1, 1), padding=(1, 1), bias=False)
            (bn): BatchNorm2d(512, eps=0.001, momentum=0.03, affine=True, track_running_stats=True)
          )
          (rbr_1x1): Sequential(
            (conv): Conv2d(512, 512, kernel_size=(1, 1), stride=(1, 1), bias=False)
            (bn): BatchNorm2d(512, eps=0.001, momentum=0.03, affine=True, track_running_stats=True)
          )
        )
        (block): Sequential(
          (0): RepVGGBlock(
            (nonlinearity): ReLU(inplace=True)
            (se): Identity()
            (rbr_identity): BatchNorm2d(512, eps=0.001, momentum=0.03, affine=True, track_running_stats=True)
            (rbr_dense): Sequential(
              (conv): Conv2d(512, 512, kernel_size=(3, 3), stride=(1, 1), padding=(1, 1), bias=False)
              (bn): BatchNorm2d(512, eps=0.001, momentum=0.03, affine=True, track_running_stats=True)
            )
            (rbr_1x1): Sequential(
              (conv): Conv2d(512, 512, kernel_size=(1, 1), stride=(1, 1), bias=False)
              (bn): BatchNorm2d(512, eps=0.001, momentum=0.03, affine=True, track_running_stats=True)
            )
          )
        )
      )
      (2): SimCSPSPPF(
        (cv1): SimConv(
          (conv): Conv2d(512, 256, kernel_size=(1, 1), stride=(1, 1), bias=False)
          (bn): BatchNorm2d(256, eps=0.001, momentum=0.03, affine=True, track_running_stats=True)
          (act): ReLU(inplace=True)
        )
        (cv2): SimConv(
          (conv): Conv2d(512, 256, kernel_size=(1, 1), stride=(1, 1), bias=False)
          (bn): BatchNorm2d(256, eps=0.001, momentum=0.03, affine=True, track_running_stats=True)
          (act): ReLU(inplace=True)
        )
        (cv3): SimConv(
          (conv): Conv2d(256, 256, kernel_size=(3, 3), stride=(1, 1), padding=(1, 1), bias=False)
          (bn): BatchNorm2d(256, eps=0.001, momentum=0.03, affine=True, track_running_stats=True)
          (act): ReLU(inplace=True)
        )
        (cv4): SimConv(
          (conv): Conv2d(256, 256, kernel_size=(1, 1), stride=(1, 1), bias=False)
          (bn): BatchNorm2d(256, eps=0.001, momentum=0.03, affine=True, track_running_stats=True)
          (act): ReLU(inplace=True)
        )
        (m): MaxPool2d(kernel_size=5, stride=1, padding=2, dilation=1, ceil_mode=False)
        (cv5): SimConv(
          (conv): Conv2d(1024, 256, kernel_size=(1, 1), stride=(1, 1), bias=False)
          (bn): BatchNorm2d(256, eps=0.001, momentum=0.03, affine=True, track_running_stats=True)
          (act): ReLU(inplace=True)
        )
        (cv6): SimConv(
          (conv): Conv2d(256, 256, kernel_size=(3, 3), stride=(1, 1), padding=(1, 1), bias=False)
          (bn): BatchNorm2d(256, eps=0.001, momentum=0.03, affine=True, track_running_stats=True)
          (act): ReLU(inplace=True)
        )
        (cv7): SimConv(
          (conv): Conv2d(512, 512, kernel_size=(1, 1), stride=(1, 1), bias=False)
          (bn): BatchNorm2d(512, eps=0.001, momentum=0.03, affine=True, track_running_stats=True)
          (act): ReLU(inplace=True)
        )
      )
    )
  )
  (neck): RepGDNeckWithLowFusionB2toB4(
    (low_FAM): SimFusion_LowFusionB2toB4(
      (low_IFM_ms): Sequential(
        (0): Conv(
          (conv): Conv2d(384, 128, kernel_size=(1, 1), stride=(1, 1), bias=False)
          (bn): BatchNorm2d(128, eps=0.001, momentum=0.03, affine=True, track_running_stats=True)
          (act): SiLU(inplace=True)
        )
        (1): RepVGGBlock(
          (nonlinearity): ReLU(inplace=True)
          (se): Identity()
          (rbr_identity): BatchNorm2d(128, eps=0.001, momentum=0.03, affine=True, track_running_stats=True)
          (rbr_dense): Sequential(
            (conv): Conv2d(128, 128, kernel_size=(3, 3), stride=(1, 1), padding=(1, 1), bias=False)
            (bn): BatchNorm2d(128, eps=0.001, momentum=0.03, affine=True, track_running_stats=True)
          )
          (rbr_1x1): Sequential(
            (conv): Conv2d(128, 128, kernel_size=(1, 1), stride=(1, 1), bias=False)
            (bn): BatchNorm2d(128, eps=0.001, momentum=0.03, affine=True, track_running_stats=True)
          )
        )
        (2): RepVGGBlock(
          (nonlinearity): ReLU(inplace=True)
          (se): Identity()
          (rbr_identity): BatchNorm2d(128, eps=0.001, momentum=0.03, affine=True, track_running_stats=True)
          (rbr_dense): Sequential(
            (conv): Conv2d(128, 128, kernel_size=(3, 3), stride=(1, 1), padding=(1, 1), bias=False)
            (bn): BatchNorm2d(128, eps=0.001, momentum=0.03, affine=True, track_running_stats=True)
          )
          (rbr_1x1): Sequential(
            (conv): Conv2d(128, 128, kernel_size=(1, 1), stride=(1, 1), bias=False)
            (bn): BatchNorm2d(128, eps=0.001, momentum=0.03, affine=True, track_running_stats=True)
          )
        )
        (3): RepVGGBlock(
          (nonlinearity): ReLU(inplace=True)
          (se): Identity()
          (rbr_identity): BatchNorm2d(128, eps=0.001, momentum=0.03, affine=True, track_running_stats=True)
          (rbr_dense): Sequential(
            (conv): Conv2d(128, 128, kernel_size=(3, 3), stride=(1, 1), padding=(1, 1), bias=False)
            (bn): BatchNorm2d(128, eps=0.001, momentum=0.03, affine=True, track_running_stats=True)
          )
          (rbr_1x1): Sequential(
            (conv): Conv2d(128, 128, kernel_size=(1, 1), stride=(1, 1), bias=False)
            (bn): BatchNorm2d(128, eps=0.001, momentum=0.03, affine=True, track_running_stats=True)
          )
        )
      )
      (low_IFM_lm): Sequential(
        (0): Conv(
          (conv): Conv2d(192, 128, kernel_size=(1, 1), stride=(1, 1), bias=False)
          (bn): BatchNorm2d(128, eps=0.001, momentum=0.03, affine=True, track_running_stats=True)
          (act): SiLU(inplace=True)
        )
        (1): RepVGGBlock(
          (nonlinearity): ReLU(inplace=True)
          (se): Identity()
          (rbr_identity): BatchNorm2d(128, eps=0.001, momentum=0.03, affine=True, track_running_stats=True)
          (rbr_dense): Sequential(
            (conv): Conv2d(128, 128, kernel_size=(3, 3), stride=(1, 1), padding=(1, 1), bias=False)
            (bn): BatchNorm2d(128, eps=0.001, momentum=0.03, affine=True, track_running_stats=True)
          )
          (rbr_1x1): Sequential(
            (conv): Conv2d(128, 128, kernel_size=(1, 1), stride=(1, 1), bias=False)
            (bn): BatchNorm2d(128, eps=0.001, momentum=0.03, affine=True, track_running_stats=True)
          )
        )
        (2): RepVGGBlock(
          (nonlinearity): ReLU(inplace=True)
          (se): Identity()
          (rbr_identity): BatchNorm2d(128, eps=0.001, momentum=0.03, affine=True, track_running_stats=True)
          (rbr_dense): Sequential(
            (conv): Conv2d(128, 128, kernel_size=(3, 3), stride=(1, 1), padding=(1, 1), bias=False)
            (bn): BatchNorm2d(128, eps=0.001, momentum=0.03, affine=True, track_running_stats=True)
          )
          (rbr_1x1): Sequential(
            (conv): Conv2d(128, 128, kernel_size=(1, 1), stride=(1, 1), bias=False)
            (bn): BatchNorm2d(128, eps=0.001, momentum=0.03, affine=True, track_running_stats=True)
          )
        )
        (3): RepVGGBlock(
          (nonlinearity): ReLU(inplace=True)
          (se): Identity()
          (rbr_identity): BatchNorm2d(128, eps=0.001, momentum=0.03, affine=True, track_running_stats=True)
          (rbr_dense): Sequential(
            (conv): Conv2d(128, 128, kernel_size=(3, 3), stride=(1, 1), padding=(1, 1), bias=False)
            (bn): BatchNorm2d(128, eps=0.001, momentum=0.03, affine=True, track_running_stats=True)
          )
          (rbr_1x1): Sequential(
            (conv): Conv2d(128, 128, kernel_size=(1, 1), stride=(1, 1), bias=False)
            (bn): BatchNorm2d(128, eps=0.001, momentum=0.03, affine=True, track_running_stats=True)
          )
        )
      )
      (low_IFM_ls): Sequential(
        (0): Conv(
          (conv): Conv2d(320, 128, kernel_size=(1, 1), stride=(1, 1), bias=False)
          (bn): BatchNorm2d(128, eps=0.001, momentum=0.03, affine=True, track_running_stats=True)
          (act): SiLU(inplace=True)
        )
        (1): RepVGGBlock(
          (nonlinearity): ReLU(inplace=True)
          (se): Identity()
          (rbr_identity): BatchNorm2d(128, eps=0.001, momentum=0.03, affine=True, track_running_stats=True)
          (rbr_dense): Sequential(
            (conv): Conv2d(128, 128, kernel_size=(3, 3), stride=(1, 1), padding=(1, 1), bias=False)
            (bn): BatchNorm2d(128, eps=0.001, momentum=0.03, affine=True, track_running_stats=True)
          )
          (rbr_1x1): Sequential(
            (conv): Conv2d(128, 128, kernel_size=(1, 1), stride=(1, 1), bias=False)
            (bn): BatchNorm2d(128, eps=0.001, momentum=0.03, affine=True, track_running_stats=True)
          )
        )
        (2): RepVGGBlock(
          (nonlinearity): ReLU(inplace=True)
          (se): Identity()
          (rbr_identity): BatchNorm2d(128, eps=0.001, momentum=0.03, affine=True, track_running_stats=True)
          (rbr_dense): Sequential(
            (conv): Conv2d(128, 128, kernel_size=(3, 3), stride=(1, 1), padding=(1, 1), bias=False)
            (bn): BatchNorm2d(128, eps=0.001, momentum=0.03, affine=True, track_running_stats=True)
          )
          (rbr_1x1): Sequential(
            (conv): Conv2d(128, 128, kernel_size=(1, 1), stride=(1, 1), bias=False)
            (bn): BatchNorm2d(128, eps=0.001, momentum=0.03, affine=True, track_running_stats=True)
          )
        )
        (3): RepVGGBlock(
          (nonlinearity): ReLU(inplace=True)
          (se): Identity()
          (rbr_identity): BatchNorm2d(128, eps=0.001, momentum=0.03, affine=True, track_running_stats=True)
          (rbr_dense): Sequential(
            (conv): Conv2d(128, 128, kernel_size=(3, 3), stride=(1, 1), padding=(1, 1), bias=False)
            (bn): BatchNorm2d(128, eps=0.001, momentum=0.03, affine=True, track_running_stats=True)
          )
          (rbr_1x1): Sequential(
            (conv): Conv2d(128, 128, kernel_size=(1, 1), stride=(1, 1), bias=False)
            (bn): BatchNorm2d(128, eps=0.001, momentum=0.03, affine=True, track_running_stats=True)
          )
        )
      )
      (low_IFM_lmns): Sequential(
        (0): Conv(
          (conv): Conv2d(896, 960, kernel_size=(1, 1), stride=(1, 1), bias=False)
          (bn): BatchNorm2d(960, eps=0.001, momentum=0.03, affine=True, track_running_stats=True)
          (act): SiLU(inplace=True)
        )
      )
    )
    (low_IFM): Sequential(
      (0): Conv(
        (conv): Conv2d(960, 128, kernel_size=(1, 1), stride=(1, 1), bias=False)
        (bn): BatchNorm2d(128, eps=0.001, momentum=0.03, affine=True, track_running_stats=True)
        (act): SiLU(inplace=True)
      )
      (1): RepVGGBlock(
        (nonlinearity): ReLU(inplace=True)
        (se): Identity()
        (rbr_identity): BatchNorm2d(128, eps=0.001, momentum=0.03, affine=True, track_running_stats=True)
        (rbr_dense): Sequential(
          (conv): Conv2d(128, 128, kernel_size=(3, 3), stride=(1, 1), padding=(1, 1), bias=False)
          (bn): BatchNorm2d(128, eps=0.001, momentum=0.03, affine=True, track_running_stats=True)
        )
        (rbr_1x1): Sequential(
          (conv): Conv2d(128, 128, kernel_size=(1, 1), stride=(1, 1), bias=False)
          (bn): BatchNorm2d(128, eps=0.001, momentum=0.03, affine=True, track_running_stats=True)
        )
      )
      (2): RepVGGBlock(
        (nonlinearity): ReLU(inplace=True)
        (se): Identity()
        (rbr_identity): BatchNorm2d(128, eps=0.001, momentum=0.03, affine=True, track_running_stats=True)
        (rbr_dense): Sequential(
          (conv): Conv2d(128, 128, kernel_size=(3, 3), stride=(1, 1), padding=(1, 1), bias=False)
          (bn): BatchNorm2d(128, eps=0.001, momentum=0.03, affine=True, track_running_stats=True)
        )
        (rbr_1x1): Sequential(
          (conv): Conv2d(128, 128, kernel_size=(1, 1), stride=(1, 1), bias=False)
          (bn): BatchNorm2d(128, eps=0.001, momentum=0.03, affine=True, track_running_stats=True)
        )
      )
      (3): RepVGGBlock(
        (nonlinearity): ReLU(inplace=True)
        (se): Identity()
        (rbr_identity): BatchNorm2d(128, eps=0.001, momentum=0.03, affine=True, track_running_stats=True)
        (rbr_dense): Sequential(
          (conv): Conv2d(128, 128, kernel_size=(3, 3), stride=(1, 1), padding=(1, 1), bias=False)
          (bn): BatchNorm2d(128, eps=0.001, momentum=0.03, affine=True, track_running_stats=True)
        )
        (rbr_1x1): Sequential(
          (conv): Conv2d(128, 128, kernel_size=(1, 1), stride=(1, 1), bias=False)
          (bn): BatchNorm2d(128, eps=0.001, momentum=0.03, affine=True, track_running_stats=True)
        )
      )
      (4): Conv(
        (conv): Conv2d(128, 192, kernel_size=(1, 1), stride=(1, 1), bias=False)
        (bn): BatchNorm2d(192, eps=0.001, momentum=0.03, affine=True, track_running_stats=True)
        (act): SiLU(inplace=True)
      )
    )
    (reduce_layer_c5): SimConv(
      (conv): Conv2d(512, 128, kernel_size=(1, 1), stride=(1, 1), bias=False)
      (bn): BatchNorm2d(128, eps=0.001, momentum=0.03, affine=True, track_running_stats=True)
      (act): ReLU(inplace=True)
    )
    (LAF_p4): SimFusion_3in(
      (cv1): SimConv(
        (conv): Conv2d(256, 128, kernel_size=(1, 1), stride=(1, 1), bias=False)
        (bn): BatchNorm2d(128, eps=0.001, momentum=0.03, affine=True, track_running_stats=True)
        (act): ReLU(inplace=True)
      )
      (cv_fuse): SimConv(
        (conv): Conv2d(384, 128, kernel_size=(1, 1), stride=(1, 1), bias=False)
        (bn): BatchNorm2d(128, eps=0.001, momentum=0.03, affine=True, track_running_stats=True)
        (act): ReLU(inplace=True)
      )
    )
    (Inject_p4): InjectionMultiSum_Auto_pool(
      (local_embedding): ConvModule(
        (conv): Conv2d(128, 128, kernel_size=(1, 1), stride=(1, 1), bias=False)
        (bn): SyncBatchNorm(128, eps=1e-05, momentum=0.1, affine=True, track_running_stats=True)
      )
      (global_embedding): ConvModule(
        (conv): Conv2d(128, 128, kernel_size=(1, 1), stride=(1, 1), bias=False)
        (bn): SyncBatchNorm(128, eps=1e-05, momentum=0.1, affine=True, track_running_stats=True)
      )
      (global_act): ConvModule(
        (conv): Conv2d(128, 128, kernel_size=(1, 1), stride=(1, 1), bias=False)
        (bn): SyncBatchNorm(128, eps=1e-05, momentum=0.1, affine=True, track_running_stats=True)
      )
      (act): h_sigmoid(
        (relu): ReLU6(inplace=True)
      )
    )
    (Rep_p4): RepBlock(
      (conv1): RepVGGBlock(
        (nonlinearity): ReLU(inplace=True)
        (se): Identity()
        (rbr_identity): BatchNorm2d(128, eps=0.001, momentum=0.03, affine=True, track_running_stats=True)
        (rbr_dense): Sequential(
          (conv): Conv2d(128, 128, kernel_size=(3, 3), stride=(1, 1), padding=(1, 1), bias=False)
          (bn): BatchNorm2d(128, eps=0.001, momentum=0.03, affine=True, track_running_stats=True)
        )
        (rbr_1x1): Sequential(
          (conv): Conv2d(128, 128, kernel_size=(1, 1), stride=(1, 1), bias=False)
          (bn): BatchNorm2d(128, eps=0.001, momentum=0.03, affine=True, track_running_stats=True)
        )
      )
      (block): Sequential(
        (0): RepVGGBlock(
          (nonlinearity): ReLU(inplace=True)
          (se): Identity()
          (rbr_identity): BatchNorm2d(128, eps=0.001, momentum=0.03, affine=True, track_running_stats=True)
          (rbr_dense): Sequential(
            (conv): Conv2d(128, 128, kernel_size=(3, 3), stride=(1, 1), padding=(1, 1), bias=False)
            (bn): BatchNorm2d(128, eps=0.001, momentum=0.03, affine=True, track_running_stats=True)
          )
          (rbr_1x1): Sequential(
            (conv): Conv2d(128, 128, kernel_size=(1, 1), stride=(1, 1), bias=False)
            (bn): BatchNorm2d(128, eps=0.001, momentum=0.03, affine=True, track_running_stats=True)
          )
        )
        (1): RepVGGBlock(
          (nonlinearity): ReLU(inplace=True)
          (se): Identity()
          (rbr_identity): BatchNorm2d(128, eps=0.001, momentum=0.03, affine=True, track_running_stats=True)
          (rbr_dense): Sequential(
            (conv): Conv2d(128, 128, kernel_size=(3, 3), stride=(1, 1), padding=(1, 1), bias=False)
            (bn): BatchNorm2d(128, eps=0.001, momentum=0.03, affine=True, track_running_stats=True)
          )
          (rbr_1x1): Sequential(
            (conv): Conv2d(128, 128, kernel_size=(1, 1), stride=(1, 1), bias=False)
            (bn): BatchNorm2d(128, eps=0.001, momentum=0.03, affine=True, track_running_stats=True)
          )
        )
        (2): RepVGGBlock(
          (nonlinearity): ReLU(inplace=True)
          (se): Identity()
          (rbr_identity): BatchNorm2d(128, eps=0.001, momentum=0.03, affine=True, track_running_stats=True)
          (rbr_dense): Sequential(
            (conv): Conv2d(128, 128, kernel_size=(3, 3), stride=(1, 1), padding=(1, 1), bias=False)
            (bn): BatchNorm2d(128, eps=0.001, momentum=0.03, affine=True, track_running_stats=True)
          )
          (rbr_1x1): Sequential(
            (conv): Conv2d(128, 128, kernel_size=(1, 1), stride=(1, 1), bias=False)
            (bn): BatchNorm2d(128, eps=0.001, momentum=0.03, affine=True, track_running_stats=True)
          )
        )
      )
    )
    (reduce_layer_p4): SimConv(
      (conv): Conv2d(128, 64, kernel_size=(1, 1), stride=(1, 1), bias=False)
      (bn): BatchNorm2d(64, eps=0.001, momentum=0.03, affine=True, track_running_stats=True)
      (act): ReLU(inplace=True)
    )
    (LAF_p3): SimFusion_3in(
      (cv1): SimConv(
        (conv): Conv2d(128, 64, kernel_size=(1, 1), stride=(1, 1), bias=False)
        (bn): BatchNorm2d(64, eps=0.001, momentum=0.03, affine=True, track_running_stats=True)
        (act): ReLU(inplace=True)
      )
      (cv_fuse): SimConv(
        (conv): Conv2d(192, 64, kernel_size=(1, 1), stride=(1, 1), bias=False)
        (bn): BatchNorm2d(64, eps=0.001, momentum=0.03, affine=True, track_running_stats=True)
        (act): ReLU(inplace=True)
      )
    )
    (Inject_p3): InjectionMultiSum_Auto_pool(
      (local_embedding): ConvModule(
        (conv): Conv2d(64, 64, kernel_size=(1, 1), stride=(1, 1), bias=False)
        (bn): SyncBatchNorm(64, eps=1e-05, momentum=0.1, affine=True, track_running_stats=True)
      )
      (global_embedding): ConvModule(
        (conv): Conv2d(64, 64, kernel_size=(1, 1), stride=(1, 1), bias=False)
        (bn): SyncBatchNorm(64, eps=1e-05, momentum=0.1, affine=True, track_running_stats=True)
      )
      (global_act): ConvModule(
        (conv): Conv2d(64, 64, kernel_size=(1, 1), stride=(1, 1), bias=False)
        (bn): SyncBatchNorm(64, eps=1e-05, momentum=0.1, affine=True, track_running_stats=True)
      )
      (act): h_sigmoid(
        (relu): ReLU6(inplace=True)
      )
    )
    (Rep_p3): RepBlock(
      (conv1): RepVGGBlock(
        (nonlinearity): ReLU(inplace=True)
        (se): Identity()
        (rbr_identity): BatchNorm2d(64, eps=0.001, momentum=0.03, affine=True, track_running_stats=True)
        (rbr_dense): Sequential(
          (conv): Conv2d(64, 64, kernel_size=(3, 3), stride=(1, 1), padding=(1, 1), bias=False)
          (bn): BatchNorm2d(64, eps=0.001, momentum=0.03, affine=True, track_running_stats=True)
        )
        (rbr_1x1): Sequential(
          (conv): Conv2d(64, 64, kernel_size=(1, 1), stride=(1, 1), bias=False)
          (bn): BatchNorm2d(64, eps=0.001, momentum=0.03, affine=True, track_running_stats=True)
        )
      )
      (block): Sequential(
        (0): RepVGGBlock(
          (nonlinearity): ReLU(inplace=True)
          (se): Identity()
          (rbr_identity): BatchNorm2d(64, eps=0.001, momentum=0.03, affine=True, track_running_stats=True)
          (rbr_dense): Sequential(
            (conv): Conv2d(64, 64, kernel_size=(3, 3), stride=(1, 1), padding=(1, 1), bias=False)
            (bn): BatchNorm2d(64, eps=0.001, momentum=0.03, affine=True, track_running_stats=True)
          )
          (rbr_1x1): Sequential(
            (conv): Conv2d(64, 64, kernel_size=(1, 1), stride=(1, 1), bias=False)
            (bn): BatchNorm2d(64, eps=0.001, momentum=0.03, affine=True, track_running_stats=True)
          )
        )
        (1): RepVGGBlock(
          (nonlinearity): ReLU(inplace=True)
          (se): Identity()
          (rbr_identity): BatchNorm2d(64, eps=0.001, momentum=0.03, affine=True, track_running_stats=True)
          (rbr_dense): Sequential(
            (conv): Conv2d(64, 64, kernel_size=(3, 3), stride=(1, 1), padding=(1, 1), bias=False)
            (bn): BatchNorm2d(64, eps=0.001, momentum=0.03, affine=True, track_running_stats=True)
          )
          (rbr_1x1): Sequential(
            (conv): Conv2d(64, 64, kernel_size=(1, 1), stride=(1, 1), bias=False)
            (bn): BatchNorm2d(64, eps=0.001, momentum=0.03, affine=True, track_running_stats=True)
          )
        )
        (2): RepVGGBlock(
          (nonlinearity): ReLU(inplace=True)
          (se): Identity()
          (rbr_identity): BatchNorm2d(64, eps=0.001, momentum=0.03, affine=True, track_running_stats=True)
          (rbr_dense): Sequential(
            (conv): Conv2d(64, 64, kernel_size=(3, 3), stride=(1, 1), padding=(1, 1), bias=False)
            (bn): BatchNorm2d(64, eps=0.001, momentum=0.03, affine=True, track_running_stats=True)
          )
          (rbr_1x1): Sequential(
            (conv): Conv2d(64, 64, kernel_size=(1, 1), stride=(1, 1), bias=False)
            (bn): BatchNorm2d(64, eps=0.001, momentum=0.03, affine=True, track_running_stats=True)
          )
        )
      )
    )
    (high_FAM): PyramidPoolAgg()
    (high_IFM): TopBasicLayer(
      (transformer_blocks): ModuleList(
        (0): top_Block(
          (attn): Attention(
            (to_q): Conv2d_BN(
              (c): Conv2d(704, 32, kernel_size=(1, 1), stride=(1, 1), bias=False)
              (bn): SyncBatchNorm(32, eps=1e-05, momentum=0.1, affine=True, track_running_stats=True)
            )
            (to_k): Conv2d_BN(
              (c): Conv2d(704, 32, kernel_size=(1, 1), stride=(1, 1), bias=False)
              (bn): SyncBatchNorm(32, eps=1e-05, momentum=0.1, affine=True, track_running_stats=True)
            )
            (to_v): Conv2d_BN(
              (c): Conv2d(704, 64, kernel_size=(1, 1), stride=(1, 1), bias=False)
              (bn): SyncBatchNorm(64, eps=1e-05, momentum=0.1, affine=True, track_running_stats=True)
            )
            (proj): Sequential(
              (0): ReLU6(inplace=True)
              (1): Conv2d_BN(
                (c): Conv2d(64, 704, kernel_size=(1, 1), stride=(1, 1), bias=False)
                (bn): SyncBatchNorm(704, eps=1e-05, momentum=0.1, affine=True, track_running_stats=True)
              )
            )
          )
          (drop_path): Identity()
          (mlp): Mlp(
            (fc1): Conv2d_BN(
              (c): Conv2d(704, 704, kernel_size=(1, 1), stride=(1, 1), bias=False)
              (bn): SyncBatchNorm(704, eps=1e-05, momentum=0.1, affine=True, track_running_stats=True)
            )
            (dwconv): Conv2d(704, 704, kernel_size=(3, 3), stride=(1, 1), padding=(1, 1), groups=704)
            (act): ReLU6(inplace=True)
            (fc2): Conv2d_BN(
              (c): Conv2d(704, 704, kernel_size=(1, 1), stride=(1, 1), bias=False)
              (bn): SyncBatchNorm(704, eps=1e-05, momentum=0.1, affine=True, track_running_stats=True)
            )
            (drop): Dropout(p=0, inplace=False)
          )
        )
        (1): top_Block(
          (attn): Attention(
            (to_q): Conv2d_BN(
              (c): Conv2d(704, 32, kernel_size=(1, 1), stride=(1, 1), bias=False)
              (bn): SyncBatchNorm(32, eps=1e-05, momentum=0.1, affine=True, track_running_stats=True)
            )
            (to_k): Conv2d_BN(
              (c): Conv2d(704, 32, kernel_size=(1, 1), stride=(1, 1), bias=False)
              (bn): SyncBatchNorm(32, eps=1e-05, momentum=0.1, affine=True, track_running_stats=True)
            )
            (to_v): Conv2d_BN(
              (c): Conv2d(704, 64, kernel_size=(1, 1), stride=(1, 1), bias=False)
              (bn): SyncBatchNorm(64, eps=1e-05, momentum=0.1, affine=True, track_running_stats=True)
            )
            (proj): Sequential(
              (0): ReLU6(inplace=True)
              (1): Conv2d_BN(
                (c): Conv2d(64, 704, kernel_size=(1, 1), stride=(1, 1), bias=False)
                (bn): SyncBatchNorm(704, eps=1e-05, momentum=0.1, affine=True, track_running_stats=True)
              )
            )
          )
          (drop_path): DropPath()
          (mlp): Mlp(
            (fc1): Conv2d_BN(
              (c): Conv2d(704, 704, kernel_size=(1, 1), stride=(1, 1), bias=False)
              (bn): SyncBatchNorm(704, eps=1e-05, momentum=0.1, affine=True, track_running_stats=True)
            )
            (dwconv): Conv2d(704, 704, kernel_size=(3, 3), stride=(1, 1), padding=(1, 1), groups=704)
            (act): ReLU6(inplace=True)
            (fc2): Conv2d_BN(
              (c): Conv2d(704, 704, kernel_size=(1, 1), stride=(1, 1), bias=False)
              (bn): SyncBatchNorm(704, eps=1e-05, momentum=0.1, affine=True, track_running_stats=True)
            )
            (drop): Dropout(p=0, inplace=False)
          )
        )
      )
    )
    (conv_1x1_n): Conv2d(704, 384, kernel_size=(1, 1), stride=(1, 1))
    (LAF_n4): AdvPoolFusion()
    (Inject_n4): InjectionMultiSum_Auto_pool(
      (local_embedding): ConvModule(
        (conv): Conv2d(128, 128, kernel_size=(1, 1), stride=(1, 1), bias=False)
        (bn): SyncBatchNorm(128, eps=1e-05, momentum=0.1, affine=True, track_running_stats=True)
      )
      (global_embedding): ConvModule(
        (conv): Conv2d(128, 128, kernel_size=(1, 1), stride=(1, 1), bias=False)
        (bn): SyncBatchNorm(128, eps=1e-05, momentum=0.1, affine=True, track_running_stats=True)
      )
      (global_act): ConvModule(
        (conv): Conv2d(128, 128, kernel_size=(1, 1), stride=(1, 1), bias=False)
        (bn): SyncBatchNorm(128, eps=1e-05, momentum=0.1, affine=True, track_running_stats=True)
      )
      (act): h_sigmoid(
        (relu): ReLU6(inplace=True)
      )
    )
    (Rep_n4): RepBlock(
      (conv1): RepVGGBlock(
        (nonlinearity): ReLU(inplace=True)
        (se): Identity()
        (rbr_identity): BatchNorm2d(128, eps=0.001, momentum=0.03, affine=True, track_running_stats=True)
        (rbr_dense): Sequential(
          (conv): Conv2d(128, 128, kernel_size=(3, 3), stride=(1, 1), padding=(1, 1), bias=False)
          (bn): BatchNorm2d(128, eps=0.001, momentum=0.03, affine=True, track_running_stats=True)
        )
        (rbr_1x1): Sequential(
          (conv): Conv2d(128, 128, kernel_size=(1, 1), stride=(1, 1), bias=False)
          (bn): BatchNorm2d(128, eps=0.001, momentum=0.03, affine=True, track_running_stats=True)
        )
      )
      (block): Sequential(
        (0): RepVGGBlock(
          (nonlinearity): ReLU(inplace=True)
          (se): Identity()
          (rbr_identity): BatchNorm2d(128, eps=0.001, momentum=0.03, affine=True, track_running_stats=True)
          (rbr_dense): Sequential(
            (conv): Conv2d(128, 128, kernel_size=(3, 3), stride=(1, 1), padding=(1, 1), bias=False)
            (bn): BatchNorm2d(128, eps=0.001, momentum=0.03, affine=True, track_running_stats=True)
          )
          (rbr_1x1): Sequential(
            (conv): Conv2d(128, 128, kernel_size=(1, 1), stride=(1, 1), bias=False)
            (bn): BatchNorm2d(128, eps=0.001, momentum=0.03, affine=True, track_running_stats=True)
          )
        )
        (1): RepVGGBlock(
          (nonlinearity): ReLU(inplace=True)
          (se): Identity()
          (rbr_identity): BatchNorm2d(128, eps=0.001, momentum=0.03, affine=True, track_running_stats=True)
          (rbr_dense): Sequential(
            (conv): Conv2d(128, 128, kernel_size=(3, 3), stride=(1, 1), padding=(1, 1), bias=False)
            (bn): BatchNorm2d(128, eps=0.001, momentum=0.03, affine=True, track_running_stats=True)
          )
          (rbr_1x1): Sequential(
            (conv): Conv2d(128, 128, kernel_size=(1, 1), stride=(1, 1), bias=False)
            (bn): BatchNorm2d(128, eps=0.001, momentum=0.03, affine=True, track_running_stats=True)
          )
        )
        (2): RepVGGBlock(
          (nonlinearity): ReLU(inplace=True)
          (se): Identity()
          (rbr_identity): BatchNorm2d(128, eps=0.001, momentum=0.03, affine=True, track_running_stats=True)
          (rbr_dense): Sequential(
            (conv): Conv2d(128, 128, kernel_size=(3, 3), stride=(1, 1), padding=(1, 1), bias=False)
            (bn): BatchNorm2d(128, eps=0.001, momentum=0.03, affine=True, track_running_stats=True)
          )
          (rbr_1x1): Sequential(
            (conv): Conv2d(128, 128, kernel_size=(1, 1), stride=(1, 1), bias=False)
            (bn): BatchNorm2d(128, eps=0.001, momentum=0.03, affine=True, track_running_stats=True)
          )
        )
      )
    )
    (LAF_n5): AdvPoolFusion()
    (Inject_n5): InjectionMultiSum_Auto_pool(
      (local_embedding): ConvModule(
        (conv): Conv2d(256, 256, kernel_size=(1, 1), stride=(1, 1), bias=False)
        (bn): SyncBatchNorm(256, eps=1e-05, momentum=0.1, affine=True, track_running_stats=True)
      )
      (global_embedding): ConvModule(
        (conv): Conv2d(256, 256, kernel_size=(1, 1), stride=(1, 1), bias=False)
        (bn): SyncBatchNorm(256, eps=1e-05, momentum=0.1, affine=True, track_running_stats=True)
      )
      (global_act): ConvModule(
        (conv): Conv2d(256, 256, kernel_size=(1, 1), stride=(1, 1), bias=False)
        (bn): SyncBatchNorm(256, eps=1e-05, momentum=0.1, affine=True, track_running_stats=True)
      )
      (act): h_sigmoid(
        (relu): ReLU6(inplace=True)
      )
    )
    (Rep_n5): RepBlock(
      (conv1): RepVGGBlock(
        (nonlinearity): ReLU(inplace=True)
        (se): Identity()
        (rbr_identity): BatchNorm2d(256, eps=0.001, momentum=0.03, affine=True, track_running_stats=True)
        (rbr_dense): Sequential(
          (conv): Conv2d(256, 256, kernel_size=(3, 3), stride=(1, 1), padding=(1, 1), bias=False)
          (bn): BatchNorm2d(256, eps=0.001, momentum=0.03, affine=True, track_running_stats=True)
        )
        (rbr_1x1): Sequential(
          (conv): Conv2d(256, 256, kernel_size=(1, 1), stride=(1, 1), bias=False)
          (bn): BatchNorm2d(256, eps=0.001, momentum=0.03, affine=True, track_running_stats=True)
        )
      )
      (block): Sequential(
        (0): RepVGGBlock(
          (nonlinearity): ReLU(inplace=True)
          (se): Identity()
          (rbr_identity): BatchNorm2d(256, eps=0.001, momentum=0.03, affine=True, track_running_stats=True)
          (rbr_dense): Sequential(
            (conv): Conv2d(256, 256, kernel_size=(3, 3), stride=(1, 1), padding=(1, 1), bias=False)
            (bn): BatchNorm2d(256, eps=0.001, momentum=0.03, affine=True, track_running_stats=True)
          )
          (rbr_1x1): Sequential(
            (conv): Conv2d(256, 256, kernel_size=(1, 1), stride=(1, 1), bias=False)
            (bn): BatchNorm2d(256, eps=0.001, momentum=0.03, affine=True, track_running_stats=True)
          )
        )
        (1): RepVGGBlock(
          (nonlinearity): ReLU(inplace=True)
          (se): Identity()
          (rbr_identity): BatchNorm2d(256, eps=0.001, momentum=0.03, affine=True, track_running_stats=True)
          (rbr_dense): Sequential(
            (conv): Conv2d(256, 256, kernel_size=(3, 3), stride=(1, 1), padding=(1, 1), bias=False)
            (bn): BatchNorm2d(256, eps=0.001, momentum=0.03, affine=True, track_running_stats=True)
          )
          (rbr_1x1): Sequential(
            (conv): Conv2d(256, 256, kernel_size=(1, 1), stride=(1, 1), bias=False)
            (bn): BatchNorm2d(256, eps=0.001, momentum=0.03, affine=True, track_running_stats=True)
          )
        )
        (2): RepVGGBlock(
          (nonlinearity): ReLU(inplace=True)
          (se): Identity()
          (rbr_identity): BatchNorm2d(256, eps=0.001, momentum=0.03, affine=True, track_running_stats=True)
          (rbr_dense): Sequential(
            (conv): Conv2d(256, 256, kernel_size=(3, 3), stride=(1, 1), padding=(1, 1), bias=False)
            (bn): BatchNorm2d(256, eps=0.001, momentum=0.03, affine=True, track_running_stats=True)
          )
          (rbr_1x1): Sequential(
            (conv): Conv2d(256, 256, kernel_size=(1, 1), stride=(1, 1), bias=False)
            (bn): BatchNorm2d(256, eps=0.001, momentum=0.03, affine=True, track_running_stats=True)
          )
        )
      )
    )
  )
  (detect): Detect(
    (proj_conv): Conv2d(17, 1, kernel_size=(1, 1), stride=(1, 1), bias=False)
    (stems): ModuleList(
      (0): Conv(
        (conv): Conv2d(64, 64, kernel_size=(1, 1), stride=(1, 1), bias=False)
        (bn): BatchNorm2d(64, eps=0.001, momentum=0.03, affine=True, track_running_stats=True)
        (act): SiLU(inplace=True)
      )
      (1): Conv(
        (conv): Conv2d(128, 128, kernel_size=(1, 1), stride=(1, 1), bias=False)
        (bn): BatchNorm2d(128, eps=0.001, momentum=0.03, affine=True, track_running_stats=True)
        (act): SiLU(inplace=True)
      )
      (2): Conv(
        (conv): Conv2d(256, 256, kernel_size=(1, 1), stride=(1, 1), bias=False)
        (bn): BatchNorm2d(256, eps=0.001, momentum=0.03, affine=True, track_running_stats=True)
        (act): SiLU(inplace=True)
      )
    )
    (cls_convs): ModuleList(
      (0): Conv(
        (conv): Conv2d(64, 64, kernel_size=(3, 3), stride=(1, 1), padding=(1, 1), bias=False)
        (bn): BatchNorm2d(64, eps=0.001, momentum=0.03, affine=True, track_running_stats=True)
        (act): SiLU(inplace=True)
      )
      (1): Conv(
        (conv): Conv2d(128, 128, kernel_size=(3, 3), stride=(1, 1), padding=(1, 1), bias=False)
        (bn): BatchNorm2d(128, eps=0.001, momentum=0.03, affine=True, track_running_stats=True)
        (act): SiLU(inplace=True)
      )
      (2): Conv(
        (conv): Conv2d(256, 256, kernel_size=(3, 3), stride=(1, 1), padding=(1, 1), bias=False)
        (bn): BatchNorm2d(256, eps=0.001, momentum=0.03, affine=True, track_running_stats=True)
        (act): SiLU(inplace=True)
      )
    )
    (reg_convs): ModuleList(
      (0): Conv(
        (conv): Conv2d(64, 64, kernel_size=(3, 3), stride=(1, 1), padding=(1, 1), bias=False)
        (bn): BatchNorm2d(64, eps=0.001, momentum=0.03, affine=True, track_running_stats=True)
        (act): SiLU(inplace=True)
      )
      (1): Conv(
        (conv): Conv2d(128, 128, kernel_size=(3, 3), stride=(1, 1), padding=(1, 1), bias=False)
        (bn): BatchNorm2d(128, eps=0.001, momentum=0.03, affine=True, track_running_stats=True)
        (act): SiLU(inplace=True)
      )
      (2): Conv(
        (conv): Conv2d(256, 256, kernel_size=(3, 3), stride=(1, 1), padding=(1, 1), bias=False)
        (bn): BatchNorm2d(256, eps=0.001, momentum=0.03, affine=True, track_running_stats=True)
        (act): SiLU(inplace=True)
      )
    )
    (cls_preds): ModuleList(
      (0): Conv2d(64, 4, kernel_size=(1, 1), stride=(1, 1))
      (1): Conv2d(128, 4, kernel_size=(1, 1), stride=(1, 1))
      (2): Conv2d(256, 4, kernel_size=(1, 1), stride=(1, 1))
    )
    (reg_preds): ModuleList(
      (0): Conv2d(64, 68, kernel_size=(1, 1), stride=(1, 1))
      (1): Conv2d(128, 68, kernel_size=(1, 1), stride=(1, 1))
      (2): Conv2d(256, 68, kernel_size=(1, 1), stride=(1, 1))
    )
  )
)
Training start...

     Epoch  iou_loss  dfl_loss  cls_loss
------------------------type----------------
GoldYOLO-s
Config (path: configs/gold_rgb_resdul_fusionb24.py): {'use_checkpoint': False, 'model': {'type': 'GoldYOLO-s', 'pretrained': None, 'depth_multiple': 0.33, 'width_multiple': 0.5, 'backbone': {'type': 'EfficientRep_RGB_Resdul', 'n
…
